fraud_model.pth (torch, 6192 bytes, 3 tensors)

layer_1.weight f4 [32, 29]
1.0656829 -0.51583284 -0.35416454 0.22469075 -0.22057357 -0.36228138 0.09032348 0.7944846
-0.17786898 0.5838137 0.26749778 0.4521057 -0.010924236 0.44272423 0.77757734 -0.023192378
-0.055137884 0.34894958 -0.32270145 -0.37321237 0.9547165 -0.4338298 -0.031564265 -0.23041622
-0.032516245 0.11938211 -0.048938323 -1.0372163 0.012082791 0.29048875 -0.24350674 -0.44282284
-1.6575401 0.007339105 -1.2398998 -0.18931314 0.0029379735 0.23167448 0.29456842 0.23269092
0.23629986 0.021276165 -0.27288395 0.61265117 -0.11705677 -0.0797323 -0.12239256 -1.1012304
-0.2748947 -1.0457306 0.0018725505 -0.1032442 -0.92414564 -1.0372698 0.4986269 -0.60539186
-1.3405986 0.027904244 0.50837725 0.73729527 -0.5114189 -0.21616533 -0.50998604 0.13399267
0.11553523 0.19356701 0.24672896 -0.084639765 -0.9222336 0.3669471 -0.12396612 -0.022127986
0.0008181397 0.44362232 0.46323627 -0.67616796 -0.33677 0.8116256 -0.17695868 0.16162094
0.25478062 0.36250162 -0.608565 0.13007239 0.072707705 0.8760224 0.058399636 0.13697965
0.01281149 -0.022461835 0.27767423 -0.71413183 0.060798023 -0.2122732 -0.22573262 -0.020830924
-0.21142226 -0.30036035 -0.22659291 -0.3250228 -0.23621884 -0.44897845 -0.63457954 -0.21206103
0.029098887 0.30784976 0.60125464 -0.2768985 -0.030815404 -0.14152275 0.77737176 0.33611238
-0.38722846 -0.022986107 0.19784576 -0.10201538 0.36156017 0.41596842 -0.0126039265 0.2417952
0.18766057 0.18903095 -1.3940738 -0.012276414 0.24712099 0.07207508 0.14260377 -0.2121113
-0.06446495 0.3295234 -0.12819375 -0.02598676 -0.7841932 -0.7801834 0.2518094 0.10875502
-0.39459026 0.45919892 -0.4195131 -0.5527291 -0.18236579 1.118425 -0.008744539 0.47124058
-0.29825547 -0.34482098 -0.13822271 -0.18420684 0.31591022 -0.008284546 -0.11608649 -0.0098082535
-0.14999814 0.33990145 0.134919 0.9671314 -0.070809364 -0.8122608 0.5851646 0.15398735
-0.5685343 -0.7205527 -0.3380572 0.03153666 0.58507866 0.6749656 -0.46135136 0.17589991
0.6560419 -0.6548291 0.20835944 -0.20433457 -0.29976338 -0.11845118 0.079105034 0.1662118
0.018266967 0.41599107 0.07836216 0.056746963 0.4935105 -0.6076548 0.09135083 -0.19887766
-0.3253917 -0.17186148 0.017430523 0.3043511 0.66971314 -0.03279518 0.42803445 -0.15776488
0.6109869 -0.098841034 -0.8664137 -1.1206752 -0.8244369 0.72133845 -0.8735787 0.6679912
-0.511934 -1.2412817 0.030967964 -0.16009147 0.17736056 0.009115921 -0.6184825 0.4753703
-0.108098015 -0.1933145 0.4125412 0.41802263 0.24263558 0.16716193 0.107031524 0.17429231
0.5166724 0.26933694 -0.044346802 0.22268936 0.010781232 -0.15694325 -0.08159622 0.20165445
0.5605064 -0.7231232 0.32085046 0.5462538 -0.0135988295 -0.43207774 0.5106695 0.11736009
-0.21484952 0.6509493 -0.014712076 -0.9375629 0.6866163 -0.332528 0.13925901 -0.19675131
-0.79607123 0.41665447 0.088418745 0.2540906 -0.32235363 0.68430895 -0.22644095 0.025336046
0.23891096 0.9337236 0.5033915 0.47959822 -0.8768102 -0.53529924 0.5012601 -0.34619215
00000000: 4c68 883f 9f0d 04bf 0e55 b5be 5515 663e
00000010: 0ade 61be f27c b9be 84fb b83d 5863 4b3f
00000020: 4923 36be d174 153f 78f5 883e 667a e73e
00000030: 91fb 32bc c0ac e23e 4f0f 473f f1fd bdbc
00000040: 43d8 61bd 85a9 b23e 2039 a5be b115 bfbe
00000050: 4d68 743f f11e debe 8849 01bd 3bf2 6bbe
00000060: c12f 05bd 9c7e f43d 8d73 48bd 81c3 84bf
00000070: e6f6 453c f1ba 943e d559 79be adb9 e2be
00000080: 462a d4bf e07c f03b 09b5 9ebf 4edb 41be
00000090: 048b 403b 133c 6d3e acd1 963e 8746 6e3e
000000a0: 97f8 713e 5a4b ae3c 72b7 8bbe b5d6 1c3f
000000b0: 76bb efbd b04a a3bd f3a8 fabd 1ef5 8cbf
000000c0: 00bf 8cbe 80da 85bf 5e70 f53a b271 d3bd
000000d0: cf94 6cbf 42c5 84bf 064c ff3e f6fa 1abf
000000e0: bc98 abbf 7197 e43c 0325 023f 62bf 3c3f
000000f0: 59ec 02bf 725a 5dbe 728e 02bf 6035 093e
00000100: bc9d ec3d 6e36 463e 84a6 7c3e 9d57 adbd
00000110: 8017 6cbf 7ee0 bb3e f3e1 fdbd c045 b5bc
00000120: 6d78 563a 7722 e33e 4e2d ed3e 5819 2dbf
00000130: 1e6d acbe b2c6 4f3f a834 35be f67f 253e
00000140: 9b72 823e d099 b93e eaca 1bbf b231 053e
00000150: c7e7 943d 0143 603f 7534 6f3d 6544 0c3e
00000160: 49e7 513c e201 b8bc 512b 8e3e 58d1 36bf
00000170: 5907 793d 255e 59be 7426 67be 9da5 aabc
00000180: 147f 58be d5c8 99be f907 68be 6369 a6be
00000190: 5ae3 71be 81e0 e5be ce73 22bf 8726 59be
000001a0: ca60 ee3c 7c9e 9d3e d3eb 193f a4c5 8dbe
000001b0: 9670 fcbc 57eb 10be d601 473f ec16 ac3e
000001c0: cf42 c6be 5c4d bcbc 1498 4a3e 71ed d0bd
000001d0: 6a1e b93e d0f9 d43e b380 4ebc 2999 773e
000001e0: 182a 403e 5491 413e 0371 b2bf 0323 49bc
000001f0: 490d 7d3e 199c 933d b906 123e b433 59be
00000200: 3306 84bd 4bb7 a83e 3945 03be 30e2 d4bc
00000210: e3c0 48bf 19ba 47bf 29ed 803e f4ba de3d
00000220: bc07 cabe 1f1c eb3e 6cca d6be a87f 0dbf
00000230: 19be 3abe 8d28 8f3f 4145 0fbc 7246 f13e
00000240: f1b4 98be 608c b0be 418a 0dbe b8a0 3cbe
00000250: fcbe a13e e8bb 07bc c1be edbd ccb2 20bc
00000260: 1d99 19be 9007 ae3e 3528 0a3e ec95 773f
00000270: 8004 91bd 53f0 4fbf 59cd 153f dcae 1d3e
00000280: 778b 11bf 2476 38bf d515 adbe 962c 013d
00000290: b7c7 153f 8cca 2c3f 3f36 ecbe 1b1f 343e
000002a0: 5df2 273f e1a2 27bf 2d5c 553e 153d 51be
000002b0: 967a 99be 8896 f2bd d201 a23d 6d33 2a3e
000002c0: 9ba4 953c c8fc d43e 577c a03d 816f 683d
000002d0: 69ad fc3e 448f 1bbf 2516 bb3d 96a6 4bbe
000002e0: be99 a6be 75fc 2fbe 75ca 8e3c e8d3 9b3e
000002f0: 5272 2b3f 3d54 06bd 5527 db3e 1e8d 21be
00000300: a369 1c3f 2b6d cabd 4acd 5dbf 4972 8fbf
00000310: 4c0e 53bf a3a9 383f dba2 5fbf 7901 2b3f
00000320: 1b0e 03bf 52e2 9ebf 87b0 fd3c 05ef 23be
00000330: 029e 353e f25a 153c de54 1ebf bc63 f33e
00000340: 7e62 ddbd 3cf4 45be 9a38 d33e 1007 d63e
00000350: 7675 783e 7f2c 2b3e 5833 db3d af79 323e
00000360: a444 043f 88e6 893e fea4 35bd ae08 643e
00000370: c4a3 303c bbb5 20be eb1b a7bd 817e 4e3e
00000380: 597d 0f3f 9a1e 39bf 8346 a43e 4ad7 0b3f
00000390: a0cd 5ebc 4b39 ddbe 3dbb 023f 7d5a f03d
000003a0: 8301 5cbe 9da4 263f eb0a 71bc 1f04 70bf
000003b0: 16c6 2f3f 1c41 aabe ea99 0e3e 2d79 49be
000003c0: 53cb 4bbf bc53 d53e e314 b53d 2a18 823e
000003d0: 890b a5be df2e 2f3f 23e0 67be 8a8d cf3c
000003e0: 13a5 743e 8308 6f3f 44de 003f e68d f53e
000003f0: a276 60bf 5f09 09bf 9552 003f 1940 b1be

layer_1.bias f4 [32]
-0.65804505 -0.6003224 -0.38497233 -0.19488753 0.08564644 0.25399977 -0.11114244 -0.5179464
-0.4822112 -0.47157678 0.2423036 -0.7766025 0.7575963 -0.4772883 -0.3439766 0.84842384
1.1028641 0.90207607 -0.8481792 0.8490707 -0.4832736 1.2076689 1.2956868 0.8046121
-0.81168866 -0.83902943 -0.5558437 1.5164909 -0.7182256 0.74944687 0.7848701 -0.40184256
00000000: a475 28bf bbae 19bf 181b c5be 9990 47be
00000010: 6767 af3d 420c 823e a69e e3bd 2398 04bf
00000020: 63e4 f6be 8372 f1be 6f1e 783e 6ccf 46bf
00000030: d5f1 413f 225f f4be b31d b0be 4e32 593f
00000040: a72a 8d3f 75ee 663f 4622 59bf b35c 593f
00000050: a36f f7be e594 9a3f 11d9 a53f 0ffb 4d3f
00000060: d4ca 4fbf a2ca 56bf c64b 0ebf 601c c23f
00000070: a2dd 37bf c0db 3f3f 3fed 483f 4fbe cdbe

layer_2.weight f4 [1, 32]
-1.536843 -2.2156084 -1.699832 0.6760788 1.4632422 1.0265299 -1.1192765 -1.009641
-1.8911903 -2.0066714 0.96510106 -0.81595856 0.8864846 1.3009249 -0.872633 1.0742186
0.92094386 1.1654768 -2.4441478 0.77345663 -1.6243626 1.008648 1.2776189 1.0919731
-1.8795453 -1.910427 -1.5906116 0.78614473 -1.2462075 0.7896432 1.1298432 -2.3342836
00000000: 45b7 c4bf 87cc 0dc0 1894 d9bf 8013 2d3f
00000010: 854b bb3f 5565 833f 7444 8fbf eb3b 81bf
00000020: 8612 f2bf 4e6d 00c0 dd10 773f a9e2 50bf
00000030: a8f0 623f b584 a63f e064 5fbf ff7f 893f
00000040: fac2 6b3f 582e 953f eb6c 1cc0 4101 463f
00000050: 1deb cfbf 611b 813f 0489 a33f c6c5 8b3f
00000060: f194 f0bf df88 f4bf 2999 cbbf c840 493f
00000070: ba83 9fbf 0f26 4a3f b49e 903f e764 15c0
